…
2021-09-19 23:04:14.594839: I tensorflow/core/platform/cpu_feature_guard.cc:142] This TensorFlow binary is optimized with oneAPI Deep Neural Network Library (oneDNN) to use the following CPU instructions in performance-critical operations:  AVX AVX2
To enable them in other operations, rebuild TensorFlow with the appropriate compiler flags.
2021-09-19 23:04:15.189881: I tensorflow/core/common_runtime/gpu/gpu_device.cc:1510] Created device /job:localhost/replica:0/task:0/device:GPU:0 with 9627 MB memory:  -> device: 0, name: GeForce GTX 1080 Ti, pci bus id: 0000:26:00.0, compute capability: 6.1
Model: "sequential"
_________________________________________________________________
Layer (type)                 Output Shape              Param #
=================================================================
conv2d (Conv2D)              (None, 28, 28, 32)        320
_________________________________________________________________
conv2d_1 (Conv2D)            (None, 28, 28, 64)        18496
_________________________________________________________________
max_pooling2d (MaxPooling2D) (None, 14, 14, 64)        0
_________________________________________________________________
dropout (Dropout)            (None, 14, 14, 64)        0
_________________________________________________________________
conv2d_2 (Conv2D)            (None, 14, 14, 64)        36928
_________________________________________________________________
conv2d_3 (Conv2D)            (None, 14, 14, 128)       73856
_________________________________________________________________
max_pooling2d_1 (MaxPooling2 (None, 7, 7, 128)         0
_________________________________________________________________
dropout_1 (Dropout)          (None, 7, 7, 128)         0
_________________________________________________________________
flatten (Flatten)            (None, 6272)              0
_________________________________________________________________
dense (Dense)                (None, 256)               1605888
_________________________________________________________________
dense_1 (Dense)              (None, 10)                2570
_________________________________________________________________
activation (Activation)      (None, 10)                0
=================================================================
Total params: 1,738,058
Trainable params: 1,738,058
Non-trainable params: 0
_________________________________________________________________

Round 1

2021-09-19 23:04:16.330312: I tensorflow/compiler/mlir/mlir_graph_optimization_pass.cc:185] None of the MLIR Optimization Passes are enabled (registered 2)
Epoch 1/10
2021-09-19 23:04:17.669935: I tensorflow/stream_executor/cuda/cuda_dnn.cc:369] Loaded cuDNN version 8201
…
